model/model.pt (torch, 76990 bytes, 12 tensors)

weight f4 [3, 1, 3, 3]
000000 e8 19 89 3d 19 35 41 3e 60 d3 80 3d e6 fa 10 3f
       0.06694394 0.18867911 0.062903166 0.5663284
000010 cd 75 e1 3e c4 f0 f9 3e 1b c2 d5 bd 0a 77 bd bc
       0.44035187 0.48816502 -0.10437413 -0.023128051
000020 db 45 76 3d 47 b4 39 3f 95 27 17 3f 67 58 8e bd
       0.060125213 0.72540706 0.5904477 -0.06950455
000030 2a c8 e2 3e 79 1c a1 3c 6e 62 00 bf 7a a9 4a 3e
       0.44293338 0.019666897 -0.5015019 0.19791213
000040 e9 d8 a8 be 32 84 f3 be 20 63 0b 3f b9 ee 48 3f
       -0.3297799 -0.47561795 0.5444813 0.7848926
000050 9a d7 0d 3f 84 1f 05 bf 66 40 69 3e 17 63 d2 3e
       0.55407107 -0.52001214 0.22778472 0.41091225
000060 25 6c 6d bf 1d 1b 55 bf 5b 11 86 be
       -0.9274314 -0.83244497 -0.26185116

bias f4 [3]
000000 cd 0a 98 3f 60 fc 20 3c a0 fa b6 bd
       1.1878296 0.009825796 -0.08934522

weight f4 [3]
000000 0d 4f fe 3f 9a 97 f2 3f 81 40 04 40
       1.9867874 1.8952515 2.066437

bias f4 [3]
000000 a1 e9 91 3f 62 28 70 3e 5f 13 86 bd
       1.1399423 0.23452905 -0.065466635

running_mean f4 [3]
000000 00 00 00 00 00 00 00 00 00 00 00 00
       0.0 0.0 0.0

running_var f4 [3]
000000 00 00 80 3f 00 00 80 3f 00 00 80 3f
       1.0 1.0 1.0

weight f4 [32, 507]
000000 84 e2 31 bd 71 b5 35 bd 70 a0 89 3c 14 2e 5e bc
       -0.043428913 -0.04436249 0.016800135 -0.013560791
000010 e4 61 3b bd 5a 1d f4 bd 11 58 89 be f3 82 ba bd
       -0.045747653 -0.11919661 -0.26825002 -0.09107008
000020 6e 2f 89 bd 3a ea 9b be 4c a0 86 be 70 9e a4 bd
       -0.066984996 -0.30452138 -0.26294172 -0.08038032
000030 b5 59 7b 3b a4 06 0a bd da 34 b9 bd f0 cf 6c be
       0.003835303 -0.03369774 -0.09043284 -0.23126197
000040 2d e5 17 be 64 cb 27 bf b7 7e 43 bf 2d 30 20 bf
       -0.14833517 -0.65544724 -0.76365227 -0.6257351
000050 f3 a3 01 bf bf ff db be 92 4f 79 be 81 34 c1 be
       -0.5064079 -0.42968556 -0.2434676 -0.3773537
000060 af 8d cf be a2 b1 b1 bc ce a1 41 3c e9 e2 45 be
       -0.40537784 -0.021691147 0.011818362 -0.1932484
000070 c9 21 21 bf 1f f7 ea be 11 e7 c7 be 6b 17 f0 bd
       -0.6294218 -0.45891663 -0.39043477 -0.117232166
000080 56 fe fe 3d c5 c5 f4 3c 16 86 97 3e e8 7d 5f 3e
       0.124508545 0.02987946 0.29594487 0.21825373
000090 ba c3 21 3e 98 5b 68 3e 02 30 7e 3e ff 41 05 be
       0.1579732 0.2269119 0.24823001 -0.13013457
0000a0 e3 3e ae be eb 85 55 be 1a 03 ec be c9 15 01 be
       -0.34032354 -0.20851867 -0.46096116 -0.12605967
0000b0 67 10 08 be 26 6e f8 bd 8b d0 0f bd 97 71 ff 3d
       -0.13287507 -0.12130384 -0.03511099 0.124728374
0000c0 57 17 74 3e c2 d2 9d 3e ef 54 18 3f aa 72 02 3f
       0.23837028 0.30824858 0.595046 0.50956213
0000d0 43 d6 a2 be b0 1f 68 be fa 77 07 be 42 b8 8f bd
       -0.31804094 -0.22668338 -0.13229361 -0.07017566
0000e0 0e c1 03 be 86 42 ae bd e8 09 8c 3d b8 cf e8 bd
       -0.12866613 -0.08508782 0.06837827 -0.11367744
0000f0 ea 9b 17 3e 60 43 86 3e 4c 93 87 3e 5a 24 e4 3e
       0.1480557 0.26223278 0.26479566 0.44558984
000100 7b f8 25 3f 09 b3 ab be 13 3d 2c be e7 f9 5a 3e
       0.64832276 -0.3353503 -0.16820173 0.21384393
000110 57 37 c5 3e 70 6b c2 3e 81 d7 8e 3e 43 03 00 3e
       0.38518783 0.37972593 0.2789879 0.12501244
000120 53 b3 ff bd 73 08 00 3e 11 99 69 3e f1 2b 17 3d
       -0.12485375 0.12503223 0.22812296 0.03690714
000130 2a 93 04 be 02 ce 0b 3f dc 7d e6 bd 20 de 66 bc
       -0.12946764 0.5461122 -0.112544745 -0.014091045
000140 01 b1 e0 3d a7 aa bb 3e b8 79 bc 3e 41 8c 83 3e
       0.10971261 0.36653635 0.36811614 0.25692943
000150 42 9f ff bd 1f 00 00 be 15 11 00 be a5 fb 02 be
       -0.12481548 -0.12500046 -0.12506516 -0.12791307
000160 ec 92 06 be b5 37 0e be e9 2a 91 be 49 58 f3 bd
       -0.13141984 -0.13888438 -0.2835305 -0.118820734
000170 fd 86 e7 3e 66 03 85 3e 06 e4 a5 3e 9e 5f ff 3d
       0.45220175 0.25979155 0.3240053 0.124694094
000180 a9 06 25 bd ca 92 2e be c0 de ff bd df d5 e4 bd
       -0.040289555 -0.17048183 -0.12493658 -0.11173605
000190 04 ac ff bd b1 f1 ff bd 6f 35 0e be a5 c7 99 be
       -0.12483981 -0.12497271 -0.13887571 -0.3003513
0001a0 c4 e8 f2 3c 34 7b 03 3e 55 84 ae 3e dc 60 9f 3d
       0.029652007 0.12839967 0.34085336 0.07782146
0001b0 23 fd d1 3d 51 ea ff bd a9 bd ff bd 18 8e fd bd
       0.1025336 -0.12495864 -0.12487347 -0.12380618
0001c0 35 01 00 3e 30 05 20 bd 54 b6 18 bd f5 5c b5 3d
       0.1250046 -0.039067447 -0.037283257 0.08855621
0001d0 70 3c 4a be 7c 39 e6 bd db a8 84 bd 17 b8 9f 3e
       -0.19749618 -0.11241433 -0.06477519 0.31195137
0001e0 fb c4 15 3e 51 0f 89 bd fb 46 ff bd a5 32 00 be
       0.14625923 -0.066923745 -0.1246471 -0.1251932
0001f0 ba e5 00 be ec e4 ff bd 9e 55 d6 bc c2 10 d7 3c
       -0.12587634 -0.12494835 -0.026163872 0.026253108
000200 39 06 7e 3e 89 4e 1f be a5 27 4d be 6a c2 2f be
       0.24807061 -0.15557303 -0.20034654 -0.17164007
000210 a2 42 b1 3e ff cf 17 be 65 8c 9d bd 70 12 00 be
       0.3462115 -0.14825438 -0.07692794 -0.12507033
000220 31 3f 00 be d8 a6 ff bd 28 18 00 be 90 79 1b 3e
       -0.12524106 -0.12482995 -0.12509215 0.15183091
000230 3a 2f 22 3e be b7 25 3f ac 01 05 3e d7 72 3d bd
       0.15838328 0.64733493 0.12988919 -0.046252098
000240 6a 8b a4 bc 44 2d 22 bc 68 90 38 3d bf 09 51 3d
       -0.020086009 -0.0098984875 0.04505959 0.051034685
000250 52 04 00 3e 48 bd ff 3d 9e b8 0f 3e 68 be 77 3e
       0.12501648 0.124872744 0.1403527 0.24193728
000260 48 07 0b 3f ba 1e 02 3f ad 8d 23 3f ee 64 c1 3e
       0.54307985 0.50828135 0.63888055 0.37772316
000270 d1 9c 21 bd 92 37 02 bd d5 ed 2a bd c4 f2 0d bd
       -0.039456192 -0.031791277 -0.04173072 -0.034655347
000280 38 13 1e 3c 41 0f 9c bd a1 15 ec 3d aa b7 3c 3e
       0.009648137 -0.07620097 0.11527563 0.18429437
000290 e0 66 19 3f bf a4 52 3f 3b ac 5c 3f 08 bc b0 3e
       0.599226 0.8228263 0.862003 0.34518456
0002a0 ec 7f fc bd 5a 77 3b 3d 06 06 86 3d 60 14 43 3d
       -0.12329087 0.04576812 0.06544118 0.047626853
0002b0 c2 e3 17 3d f8 b8 c6 bb f5 c4 a6 3c 19 92 9d 3a
       0.03708244 -0.0060645305 0.020357588 0.001202169
0002c0 2b ae 49 bd 1b f5 a5 3d 29 dd 6d bd 0d 67 29 bd
       -0.049238365 0.08103391 -0.058072243 -0.041358043
0002d0 f8 09 dd bc c5 9a 6c 3d de 9d 22 3d d7 72 e6 bb
       -0.026982293 0.057764787 0.039701335 -0.007032733
0002e0 81 82 79 3c 5e 06 e2 3c 6e be 7e bd da 33 af be
       0.015228868 0.027590927 -0.062193327 -0.34219247
0002f0 d8 e1 cd be b7 b2 fc be f1 9e 89 be 2d c8 09 bf
       -0.40211368 -0.493551 -0.26879075 -0.5382107
000300 5e 0d 43 bf d6 d0 12 bf 05 a4 96 3c 65 c0 8f 3d
       -0.7619227 -0.5734991 0.018388757 0.07019118
000310 7f f1 66 39 55 99 a0 bd 1e 02 a9 be 78 08 6c be
       0.00022024474 -0.07841746 -0.33009428 -0.23050106
000320 b9 4d c5 be b4 fa fd bd 0d 2a 62 bd 61 79 b6 bc
       -0.3853586 -0.124013335 -0.055215884 -0.022274675
000330 f1 80 cb 3d 7e be a4 3d c4 a1 98 3e 2f 69 66 3e
       0.09936703 0.08044146 0.29810917 0.22501062
000340 25 4e 77 3d c6 05 ab 3d b2 e8 9c be a6 c1 bd be
       0.06037726 0.083507106 -0.30646282 -0.37061805
000350 fe d9 92 be d5 4e 13 3e 74 63 5c 3e 74 0c c1 3d
       -0.2868194 0.14385541 0.21522313 0.09426203
000360 fb 01 8c 3d 91 a9 fe 3d 5c 4b 99 3e a7 23 e0 3e
       0.06836315 0.12434686 0.29940307 0.437772
000370 89 55 e0 3e d2 be 7f 3c 20 4b 9c 3d 80 ae d9 be
       0.43815258 0.01560946 0.076315165 -0.42515945
000380 7a 20 f1 be aa 36 80 be 39 3b f3 bd 1a 91 ff 3d
       -0.4709509 -0.25041705 -0.1187653 0.12478848
000390 db b3 09 be 7b 35 25 bd e0 35 61 3e 05 b4 e3 3e
       -0.13447516 -0.040334206 0.21993208 0.44473282
0003a0 13 f8 c9 3e d3 cb 5d 3f e7 00 6c 3d e3 0e 09 3e
       0.39447078 0.86639136 0.057618048 0.13384585
0003b0 41 66 e7 bd bf 1f db bd 28 7a 15 be c4 c4 00 3e
       -0.112988 -0.106994145 -0.1459738 0.1257506
0003c0 33 de ad 3e df af 38 be 48 7c ff bd 2c 67 c0 3e
       0.33958587 -0.1803584 -0.12474877 0.37578714
0003d0 aa e2 13 3f ae 26 98 3e 54 dc cc 3d 39 46 01 bc
       0.57767737 0.2971701 0.10002962 -0.007890278
0003e0 1b bd 0c 3e 03 ce 93 be 27 40 fc bd 7c 08 26 bd
       0.13744013 -0.28868112 -0.123169236 -0.040535435
0003f0 8d 9d d8 3d 1d e1 9a 3e d8 ee b9 be dc 39 fb 3d
       0.105769254 0.30249873 -0.36315036 0.12266895

bias f4 [32]
000000 fe 8b 66 3e 93 79 ee be fe 8f 6a bd 7b bb 6b 3e
       0.2251434 -0.4657713 -0.057266228 0.23020737
000010 b3 2f 99 3e 7c 4b 13 3f 96 66 bd 3e 6d 82 a5 3e
       0.29919204 0.57537055 0.3699233 0.3232607
000020 f4 40 1c 3f 6e d0 6b 3e 41 e4 3c 3e 04 fb 11 3f
       0.6103661 0.23028728 0.18446447 0.57023644
000030 69 13 84 3e a4 92 47 be 52 a0 6c 3e b8 4e e2 3d
       0.2579606 -0.19489533 0.23108032 0.11050171
000040 1a c9 11 3d 69 41 24 3e ca 2c 36 3e 30 6b 9f 3e
       0.035592176 0.16040577 0.17790523 0.31136465
000050 98 c2 bd be 4f df b4 3e 7e dd 07 3d 9e 6f 5e 3e
       -0.37062526 0.3532662 0.033170216 0.21722266
000060 21 2a d4 3e 94 c5 3c bd 42 39 47 3f b4 14 01 3e
       0.41438392 -0.046086863 0.77821743 0.12605554
000070 a4 aa 96 3e b9 4d 06 3f ef 92 93 3e 22 f5 c6 3e
       0.29427063 0.52462345 0.2882304 0.38858896

weight f4 [32, 32]
000000 50 db 23 3d 74 f8 b5 bd 10 7e 59 3e a2 ef 99 3e
       0.040004075 -0.08885279 0.21239495 0.30065638
000010 bc e0 fe 3e e9 17 6c bd 8a b8 4b be ef fa 9f 3e
       0.49780834 -0.05763999 -0.19894615 0.31246135
000020 d3 86 ef 3e 96 ee 6e bd 7d d4 30 be c7 ec 7f bd
       0.4678255 -0.058333002 -0.17268558 -0.062481668
000030 26 55 9b 3b b4 1b 23 3d 02 04 40 be ea a7 3d bf
       0.004740375 0.03982134 -0.18751529 -0.7408434
000040 35 e1 7f bd 2d 7f 96 3e fb 96 00 3e 46 d7 37 be
       -0.062470634 0.29393902 0.12557594 -0.17953214
000050 06 31 64 bd 9e 03 80 bd 76 fa 6d be 5e e8 a4 bc
       -0.055710815 -0.0625069 -0.23240075 -0.020130333
000060 ab 88 95 bd 23 1b ed bd 79 4e 31 be ed 8e 7f 3d
       -0.07301458 -0.115774415 -0.17315091 0.062392164
000070 55 12 a3 3d 9f d3 4f 3c 45 87 0a 3e e9 27 a6 bd
       0.07962481 0.012684732 0.13528164 -0.08113081
000080 44 bd 47 3e 0f 39 84 3e 21 9a 7f 3d 2d ef 6f 3e
       0.19505793 0.25824782 0.06240285 0.23431082
000090 50 81 f1 bc 76 b7 7f bd 3d 61 df bd b0 38 80 bd
       -0.029480606 -0.06243082 -0.109072186 -0.06260812
0000a0 d6 90 a6 3d 2a fa 19 3d 00 1c e0 be 31 4c 68 bd
       0.08133094 0.03759209 -0.43771362 -0.056713287
0000b0 a6 6c 47 be 75 ea c2 3e 90 80 7e bd 06 20 a1 be
       -0.1947504 0.38069502 -0.062134326 -0.31469744
0000c0 2c 4b 3c be 43 64 98 bc b8 e4 c7 3d ed c9 7e be
       -0.18388051 -0.018602496 0.097604215 -0.24881716
0000d0 3b 29 5c 3e c0 f1 4a 3e 22 a6 86 3e 08 dc 1f 3e
       0.21500103 0.19818783 0.26298624 0.15611279
0000e0 35 ae 3f be f6 14 56 3e a5 29 86 3c 07 f1 9f be
       -0.18718798 0.20906433 0.01637728 -0.31238577
0000f0 ac 23 a6 3e d8 26 e9 bc 00 59 7b bd 6f 26 16 be
       0.3244909 -0.028460905 -0.061364174 -0.14663099
000100 33 d7 5a bd b6 e3 7e 3d 32 2c a3 be 23 49 89 3e
       -0.053427886 0.06222888 -0.31869656 0.2681361
000110 af 89 53 3e 1e e1 eb bd 2d 1a ae be 3e 8c 0c bf
       0.20657991 -0.11517547 -0.34004346 -0.5490149
000120 23 08 a0 be b7 03 56 bd 03 89 83 3e 73 d2 3f be
       -0.31256208 -0.052249637 0.2569047 -0.18732624
000130 bb 33 03 bf fa 47 79 3d ae df 23 bf e1 08 a0 be
       -0.5125081 0.060859658 -0.64013183 -0.31256774
000140 8e 3a 88 3d 10 fb 6c be b9 fd f2 3d b9 4e 80 3d
       0.066517934 -0.23142648 0.118648 0.06265015
000150 60 7d d3 3c ed b1 a5 be 9e 91 40 3e 20 08 80 3d
       0.02581662 -0.3236231 0.18805549 0.0625155
000160 d8 57 c8 3c b8 23 81 3d 4d 05 40 be 55 c2 44 3e
       0.02445595 0.06305641 -0.18752022 0.19214757
000170 15 94 0e be 29 3c fd 3d e0 45 a4 bd 73 7a c8 3c
       -0.13923676 0.1236499 -0.0802114 0.02447245
000180 2b 82 11 3f 37 13 6b 3e 18 a3 a8 bc 08 2b 03 3e
       0.56839246 0.22956549 -0.020585582 0.12809384
000190 9b 97 28 be b3 9a 35 be 6a ce 8e bd 0b 26 21 3c
       -0.16464083 -0.17734794 -0.06972964 0.00983573
0001a0 d0 24 3c be 74 8f 4d 3c a0 3b 9f 3d c0 c4 81 bd
       -0.18373418 0.012546409 0.077750444 -0.06336355
0001b0 91 49 71 bd 65 bb a1 be cf c4 d3 3e c2 16 53 3e
       -0.05890805 -0.31588283 0.4136109 0.2061415
0001c0 ca 8e e0 bd 68 63 7c bd fe 1e 40 3e 1c d3 73 3d
       -0.10964735 -0.06161824 0.18761823 0.0595275
0001d0 47 8f 0c 3f e2 db b1 3c 98 c5 5c 3c 4f 95 4d be
       0.54906124 0.021711294 0.013474844 -0.20076488
0001e0 c1 1c 21 3c f5 04 e4 3e 16 19 39 bd 25 3f 1f be
       0.009833516 0.44535032 -0.04518994 -0.15551431
0001f0 a6 28 10 bd cf 3d 33 be 04 16 40 be f1 90 00 3f
       -0.035195015 -0.17504047 -0.18758398 0.50221163
000200 f8 7f 5a 3e 67 29 f1 3e 06 b5 83 3d cc f9 b4 3d
       0.21337879 0.471019 0.06431012 0.088367075
000210 f8 41 7e bd 0c 71 79 3d 6b d2 2b be fd 0c e9 3d
       -0.06207463 0.060898826 -0.16779487 0.113794304
000220 09 f1 3f be 90 03 5f be 37 c8 29 3e cd e3 43 be
       -0.18744291 -0.21778703 0.16580282 -0.19129868
000230 88 e2 7f 3d 67 0a 53 be d4 b2 96 be ef 91 1f 3e
       0.062471896 -0.20609437 -0.2943331 0.15583013
000240 bd c8 31 3c 97 a7 92 be d4 6c 84 3d b9 13 16 3e
       0.010851082 -0.28643486 0.0646607 0.14655961
000250 c4 57 ca bc 56 6d 45 3e 52 f7 3f 3e dc 66 01 3e
       -0.024700053 0.1927999 0.18746689 0.12636894
000260 21 cb 10 be 5e 04 80 bd 5c 49 c8 be 16 fe 97 3e
       -0.14139988 -0.06250833 -0.3911847 0.2968604
000270 4a aa 18 be 69 64 e1 3d 10 34 81 bd e3 62 9e bd
       -0.1490871 0.1100548 -0.06308758 -0.07733705
000280 5c 03 40 be 5e 25 80 3d 7e b5 5b be be 95 6f 3e
       -0.18751281 0.06257127 -0.21455953 0.23396966
000290 70 40 f0 3c bc f4 3a 3e a5 a2 17 3e 20 9a 95 be
       0.029327601 0.18257421 0.14808138 -0.2921915
0002a0 f4 58 84 3e fb 1d 4d 3e d2 fb 94 be a6 5a 6e 3d
       0.25849116 0.20030968 -0.29098374 0.058191918
0002b0 cf f3 7f bd 63 9e 0a bd cf cf 3f be a7 66 d8 bd
       -0.062488373 -0.033842456 -0.18731616 -0.105664544
0002c0 e8 36 02 3e a5 a3 8b be 2a 48 c0 be 51 f8 9f 3e
       0.12716258 -0.27273288 -0.37555057 0.31244138
0002d0 75 b1 4f 3d d0 3d 85 3e 28 4e 15 3e 5a 89 81 bd
       0.050706346 0.26023722 0.14580595 -0.06325026
0002e0 8c 0b 3c 3e 81 05 eb bc 4b 44 3d 3e a8 bf 2c bf
       0.1836378 -0.028689148 0.18483083 -0.67479944
0002f0 c4 74 44 3e 6a 35 98 3e 31 0a cf bd 52 06 a0 be
       0.19185168 0.29728252 -0.10109366 -0.31254822
000300 b0 0e 80 3d 15 1f 3e 3e 8f 03 40 3e 53 02 36 be
       0.062528014 0.18566544 0.18751357 -0.17774324
000310 c5 ab 70 be 67 12 80 bd 49 ce 3f be fd 37 3a be
       -0.23503025 -0.0625351 -0.18731035 -0.1818542
000320 7a 9b 22 be e1 d8 49 3e f6 ac 81 bd 3d bf 1b 3e
       -0.15879622 0.19711639 -0.06331818 0.1520967
000330 01 5d 12 be d8 bf ba 3e 7a c8 7a be 30 89 39 3e
       -0.1429329 0.3647449 -0.24490538 0.18118739
000340 91 20 31 3d 2e b4 75 be 60 03 40 be b1 65 13 be
       0.04324395 -0.23994514 -0.18751287 -0.14394261
000350 52 28 80 3d 93 ba c3 bd ca 56 07 3f 9d a9 40 3e
       0.062576905 -0.095570706 0.52866805 0.18814702
000360 dc 1f e6 bd 06 9f 26 3d db 61 40 be 69 4d 78 bd
       -0.112365454 0.040679 -0.18787329 -0.0606207
000370 95 79 bb 3e 8a 3a 21 be 7a ec 3f 3e df d8 84 3d
       0.36616197 -0.15744987 0.18742552 0.064866774
000380 2e d6 33 be 29 8c 7f 3d 96 2b 31 3e c5 28 e7 bc
       -0.17562172 0.062389527 0.17301783 -0.028217683
000390 42 df 34 be 8a 90 e5 3d 02 be 80 bd af 47 a8 3e
       -0.17663291 0.11209209 -0.06286241 0.3286719
0003a0 18 6f 4b 3e fb 6c 58 3d 37 dd 75 bc 86 24 92 bd
       0.19866598 0.052838307 -0.015006355 -0.071358725
0003b0 3f fc 9c 3e 6e 4f c0 bd 88 79 96 3d 7c 59 9f 3e
       0.30661198 -0.0939015 0.07347399 0.3112296
0003c0 80 9b 51 3e 25 68 83 3d 26 84 6f 3e 39 86 b2 bc
       0.20469475 0.06416348 0.23390254 -0.021792518
0003d0 9a fc 9f 3e a3 04 40 3e 3d 40 a6 be 43 f9 df be
       0.31247407 0.18751769 -0.32470885 -0.4374486
0003e0 86 19 9f 3e f4 04 a0 3e 25 b7 1f 3e 8b 5d a7 3e
       0.3107416 0.3125378 0.15597208 0.32688555
0003f0 73 0f 40 be 2b 17 49 be 7f 07 c9 bd f6 61 c7 3b
       -0.18755893 -0.19637744 -0.09815883 0.006084676

bias f4 [32]
000000 e4 4a f9 3d 92 d3 6f be 4b 2c d8 be 54 bd fb bb
       0.121724874 -0.23420551 -0.42221293 -0.007682482
000010 dd 58 f2 be fb 22 8e 3e 97 48 c3 be 8d 0b 14 3e
       -0.47333422 0.27761063 -0.3814132 0.14457531
000020 cc 38 55 3e 84 b7 43 be d0 d0 28 be 4e 3e 7b be
       0.20822448 -0.19112974 -0.16485906 -0.24535486
000030 1a cc be 3e 4b 66 60 be a4 19 28 3d 8e f6 31 3d
       0.37265092 -0.21914022 0.041040078 0.043448023
000040 36 a4 ad 3c 90 32 e4 bd 72 03 72 3e 7d 7a 48 be
       0.021196466 -0.111424565 0.23634127 -0.19577976
000050 31 5e 3b be 4e 32 ee bd e4 0d 6d 3e 2c 3c 0d 3c
       -0.1829765 -0.116306886 0.2314983 0.008620303
000060 72 5f 59 bd c0 a4 1b bd be 66 0d 3e 88 c3 2e 3e
       -0.05306954 -0.037998915 0.13808724 0.17066777
000070 42 f1 77 3e 08 57 cc 3e 4d d0 34 3d 2a f3 1f 3e
       0.24213126 0.3991015 0.044143964 0.15620103

weight f4 [10, 32]
000000 8a 09 f2 be 0c eb d5 3d e1 69 39 3e 03 e6 3f 3e
       -0.47272903 0.10445222 0.18106796 0.18740086
000010 87 9b 4a be 89 01 40 3e 43 20 71 3e b8 de df be
       -0.19785891 0.18750586 0.23547463 -0.43724608
000020 d2 e3 a5 be af 0f 88 bd 48 48 28 bd c8 91 58 3e
       -0.32400376 -0.066436164 -0.041084558 0.21149361
000030 da f5 7f bd 99 f6 7f bd f7 4d 7d bd 15 13 a0 be
       -0.06249032 -0.062491033 -0.06184193 -0.31264558
000040 84 9a 81 3d c7 1d 3a be 1e b7 9c 3c aa 19 48 bd
       0.063283 -0.18175422 0.019130286 -0.0488526
000050 a8 3e 81 bd bd d9 b4 bd 4d 0c 40 3e a5 ee 7f 3d
       -0.06310779 -0.08830593 0.18754692 0.06248345
000060 cf ff 9f 3e df 4e d7 bd 0d 52 8d 3e b2 3b ad be
       0.31249854 -0.1051309 0.27601662 -0.33834606
000070 13 03 0d be 96 5d 96 be 0a ee 3f 3e c9 24 92 bc
       -0.13770704 -0.29368275 0.18743148 -0.017839806
000080 fc e0 45 be a9 69 58 be ab 34 2c 3d 38 a3 52 3e
       -0.19324106 -0.21134056 0.042042416 0.20570076
000090 a8 25 96 be d0 9e 25 be ad ac 5e be c8 97 b6 3e
       -0.29325604 -0.16173863 -0.21745558 0.35662675
0000a0 51 f0 09 3f 99 6e 9e be 6b 32 08 3d da 0a a0 be
       0.5388232 -0.30943754 0.033251207 -0.3125828
0000b0 97 96 f2 bd 43 f9 30 be ba 6e 43 be 42 08 a7 bd
       -0.11845129 -0.17282586 -0.19085208 -0.08155872
0000c0 3f d4 41 3e d6 35 c9 3e 57 0a 52 3e 12 a7 d1 3d
       0.18928622 0.39298886 0.20511757 0.10236944
0000d0 3e fa df be 30 24 c5 be d2 30 a2 be ad 39 8c 3d
       -0.43745607 -0.3850417 -0.31677872 0.06846938
0000e0 b2 3a 8e be ee 08 80 bd 3c 19 dd be bf a9 a2 be
       -0.27779156 -0.06251703 -0.43183315 -0.3177013
0000f0 6f d2 9f 3e 8e 76 ee 3e ad a1 18 be bd 88 f4 3e
       0.31215236 0.46574825 -0.14905424 0.47760573
000100 2d 91 0f bf 8f de 5d bd 18 bb 80 bd e9 63 c1 3d
       -0.56080896 -0.054167327 -0.06285685 0.094428845
000110 65 04 40 3e e2 09 e0 be 45 b2 4f 3e ba 5c 2c 3d
       0.18751676 -0.4375754 0.20282848 0.04208062
000120 72 bf 7f 3d 56 d0 80 bd 4e 1c 85 bd 6e 20 b8 3d
       0.062438436 -0.06289737 -0.06499539 0.089905605
000130 36 cf 7f 3d 78 78 8e be ee 09 40 3e b3 ad 61 be
       0.06245347 -0.27826285 0.18753788 -0.22038917
000140 2d ca 7f 3d 88 07 40 3e 6b ef 32 bd 9f e2 69 bd
       0.06244867 0.18752873 -0.043685358 -0.05710089
000150 1f d0 62 3d 83 7e 7b 3e 55 f8 d3 bd 2f 0c 80 3d
       0.05537426 0.24559979 -0.103501 0.06252324
000160 73 a9 9f be 53 6c 14 3e e6 ea 28 be cc 24 c2 bd
       -0.31183967 0.14494447 -0.16495857 -0.09479675
000170 2f 03 b0 3d 79 fc 9f be d5 e5 43 3e d0 08 22 be
       0.08594357 -0.3124731 0.19130643 -0.15823674
000180 1e 17 9c 3d dd fb 3f 3e 76 10 40 be bd 56 5a 3d
       0.07621597 0.18748422 -0.1875628 0.053305376
000190 b2 30 81 3d 1a b4 7f bd f2 17 11 3a 1e 2f cf 3d
       0.06308116 -0.062427618 0.0005534879 0.10116409
0001a0 a4 e9 41 3e 17 f4 61 3e f2 bb 61 bc 12 d4 aa 3e
       0.18936783 0.22065769 -0.01377772 0.33364922
0001b0 6e dd 14 3d a8 88 5f be e8 02 a0 be be 3b ba 3d
       0.036343984 -0.21829474 -0.31252217 0.09093426
0001c0 bd 0c 40 be 9b 6f 32 bc ff 1c 9c 3d ab f9 30 be
       -0.1875486 -0.010890867 0.07622718 -0.17282741
0001d0 e9 8d 11 be a4 42 ba bd e4 01 1a bd ab 03 a0 be
       -0.1421429 -0.09094742 -0.03759946 -0.31252798
0001e0 7b 28 9a bd da ff 9f 3e eb 36 3d be cf f8 7f 3d
       -0.07527252 0.31249887 -0.18477981 0.06249314
0001f0 c4 59 ce be 96 36 98 be c3 fc 3f be 92 a2 86 3d
       -0.4030286 -0.29729146 -0.18748765 0.065739766
000200 1f 3e 81 3d 87 f8 ad be dc d3 ad 3d 6c de 41 3d
       0.06310677 -0.33978674 0.084876746 0.04733126
000210 cc bc 7f 3d 23 65 1d be a1 fe 3f be 08 f1 3f be
       0.06243591 -0.15370612 -0.18749477 -0.1874429
000220 21 aa 41 be 89 52 45 3e 23 1e 10 be e6 17 80 bd
       -0.18912555 0.19269766 -0.14073996 -0.06254558
000230 c0 00 a0 be 23 74 40 be 8c 0d 48 3e b1 08 7d bd
       -0.31250572 -0.18794303 0.19536418 -0.061775867
000240 e1 be 9d 3e 59 fb 3f be 7f 06 59 3e ea 98 c5 3c
       0.30809692 -0.18748225 0.21193884 0.024120767
000250 0c 84 6f bc 4e d5 9d 3e 7c 4f c6 3d 98 dd 1c bf
       -0.014618885 0.308268 0.09683129 -0.61275625
000260 c9 1e 55 be 56 2a 99 be 11 bd 26 be d5 e7 7f 3d
       -0.20812525 -0.29915112 -0.1628306 0.06247695
000270 e4 f7 7f bd 52 f9 3f 3e fd 99 06 3e c8 f5 3f be
       -0.062492266 0.18747452 0.1314468 -0.18746102
000280 05 5c 11 3d 6a e7 fd bb cb 02 40 be e9 66 93 3e
       0.035488147 -0.007748534 -0.18751065 0.28789452
000290 82 4c 80 3d ea d8 23 be 7a eb 9f be e8 73 57 3e
       0.06264593 -0.16000715 -0.31234342 0.21040308
0002a0 56 db de bd 50 06 a1 bc ca fb a3 3d 85 06 40 3e
       -0.10881679 -0.01965633 0.08007009 0.18752487
0002b0 4c 08 80 3d 8a fe 21 3e cd f2 9f be 91 47 b2 3d
       0.062515825 0.15819755 -0.3123993 0.087050565
0002c0 9a e5 24 be 7b ff 9f be 07 04 a0 be f2 da ff 3c
       -0.16103211 -0.31249604 -0.31253073 0.031232331
0002d0 62 9e 4b 3e 3d 3b 40 be db 93 40 3e c3 ec 7f bd
       0.19884637 -0.18772598 0.18806402 -0.062481653
0002e0 c0 ad 4c 3d a0 06 80 3d 04 3e 56 3e 38 f5 7f bd
       0.04997039 0.062512636 0.20922095 -0.06248972
0002f0 40 54 0a be e7 fc 3f 3e 22 06 a0 be ff 95 31 be
       -0.13508701 0.18748818 -0.3125468 -0.17342375
000300 a4 02 e0 be 71 6b 6e be 05 6b f2 3d 3a 4b a0 be
       -0.43752015 -0.23283173 0.118368186 -0.31307393
000310 cf 63 66 3d 25 ea 43 3e 29 ee d2 3c fd 45 2d 3e
       0.05624753 0.19132288 0.02574833 0.1692123
000320 a5 f8 3f 3e cb 12 f2 3d 80 5f e8 bd 65 bb 34 bd
       0.18747194 0.11819991 -0.1134634 -0.044124026
000330 9a 10 e0 be 12 e2 24 3e 4a 05 40 3e 87 fb 9f be
       -0.43762666 0.16101864 0.18752018 -0.31246588
000340 24 ae c1 be 5a 69 76 bd 8b 04 a0 be 9d 6c ab 3d
       -0.3782817 -0.060159065 -0.31253466 0.08370326
000350 42 de 54 3d 20 91 83 3d 1a 7c b2 3e 9e 00 80 bd
       0.051969774 0.06424165 0.34860307 -0.06250118
000360 a1 99 4e 3e ed fd 9f be 37 da e2 3c 2a 10 c4 be
       0.20175792 -0.31248417 0.027691944 -0.38293582
000370 ba 4b 9d 3c 2e 76 a0 3e b8 08 a2 be 64 69 ec bd
       0.019201148 0.31340164 -0.31647277 -0.11543539
000380 c1 18 40 3e 40 ae e2 bd 17 14 19 bd 63 15 9b bd
       0.18759443 -0.11068392 -0.037372675 -0.075724386
000390 81 20 55 be af 03 a0 3e 49 dc 7f bd ac 73 17 be
       -0.2081318 0.3125281 -0.06246594 -0.14790219
0003a0 0e 2a 17 be b3 27 be bd 22 4e 02 be 50 13 80 bd
       -0.14762136 -0.09284916 -0.12725118 -0.062536836
0003b0 fd e6 3f 3e 72 91 a9 be cc fa bc be 59 aa c1 be
       0.18740459 -0.33118778 -0.36910093 -0.37825277
0003c0 0e 17 40 be ea c0 9a 3d 6d f9 3f 3e 3e 40 0b 3e
       -0.18758795 0.07556327 0.18747492 0.13598725
0003d0 71 2d bd 3d 7c 07 80 bd 8c ea 3f be 48 f2 9f be
       0.09237183 -0.062514275 -0.18741816 -0.31239533
0003e0 08 b3 a9 be 37 de 43 3e 9a 97 35 3d 78 89 a7 3e
       -0.33144403 0.19127737 0.04433403 0.32722068
0003f0 11 83 bb 3e bc d8 59 be ff b4 6a 3e c5 e2 36 bd
       0.36623433 -0.21274084 0.22920607 -0.044649858

bias f4 [10]
000000 37 d6 4d 3b 8a 57 bd 3e 2e 6f 9a bd 5b 35 2d be
       0.00314082 0.3698085 -0.07540737 -0.16914885
000010 21 cf 6b 3d 0a 81 06 3c 1c cc e4 3c 96 8e d6 3d
       0.05757058 0.008209476 0.027929358 0.10476415
000020 21 f5 8e be d3 7d 01 be
       -0.27921394 -0.12645654
